…
I0519 17:39:35.529379  8459 net.cpp:294] The NetState phase (0) differed from the phase (1) specified by a rule in layer mnist
I0519 17:39:35.529423  8459 net.cpp:294] The NetState phase (0) differed from the phase (1) specified by a rule in layer accuracy
I0519 17:39:35.529595  8459 net.cpp:51] Initializing net from parameters:
name: "LeNet"
state {
  phase: TRAIN
  level: 0
  stage: ""
}
layer {
  name: "mnist"
  type: "Data"
  top: "data"
  top: "label"
  include {
    phase: TRAIN
  }
  transform_param {
    scale: 0.00390625
  }
  data_param {
    source: "mnist_train_lmdb"
    batch_size: 64
    backend: LMDB
  }
}
layer {
  name: "conv1"
  type: "Convolution"
  bottom: "data"
  top: "conv1"
  param {
    lr_mult: 1
  }
  param {
    lr_mult: 2
  }
  convolution_param {
    num_output: 20
    kernel_size: 5
    stride: 1
    weight_filler {
      type: "xavier"
    }
    bias_filler {
      type: "constant"
    }
  }
}
layer {
  name: "pool1"
  type: "Pooling"
  bottom: "conv1"
  top: "pool1"
  pooling_param {
    pool: MAX
    kernel_size: 2
    stride: 2
  }
}
layer {
  name: "conv2"
  type: "Convolution"
  bottom: "pool1"
  top: "conv2"
  param {
    lr_mult: 1
  }
  param {
    lr_mult: 2
  }
  convolution_param {
    num_output: 50
    kernel_size: 5
    stride: 1
    weight_filler {
      type: "xavier"
    }
    bias_filler {
      type: "constant"
    }
  }
}
layer {
  name: "pool2"
  type: "Pooling"
  bottom: "conv2"
  top: "pool2"
  pooling_param {
    pool: MAX
    kernel_size: 2
    stride: 2
  }
}
layer {
  name: "ip1"
  type: "InnerProduct"
  bottom: "pool2"
  top: "ip1"
  param {
    lr_mult: 1
  }
  param {
    lr_mult: 2
  }
  inner_product_param {
    num_output: 500
    weight_filler {
      type: "xavier"
    }
    bias_filler {
      type: "constant"
    }
  }
}
layer {
  name: "relu1"
  type: "ReLU"
  bottom: "ip1"
  top: "ip1"
}
layer {
  name: "ip2"
  type: "InnerProduct"
  bottom: "ip1"
  top: "ip2"
  param {
    lr_mult: 1
  }
  param {
    lr_mult: 2
  }
  inner_product_param {
    num_output: 10
    weight_filler {
      type: "xavier"
    }
    bias_filler {
      type: "constant"
    }
  }
}
layer {
  name: "loss"
  type: "SoftmaxWithLoss"
  bottom: "ip2"
  bottom: "label"
  top: "loss"
}
I0519 17:39:35.530431  8459 layer_factory.hpp:77] Creating layer mnist
I0519 17:39:35.562399  8459 db_lmdb.cpp:35] Opened lmdb mnist_train_lmdb
I0519 17:39:35.562490  8459 net.cpp:84] Creating Layer mnist
I0519 17:39:35.562520  8459 net.cpp:380] mnist -> data
I0519 17:39:35.562573  8459 net.cpp:380] mnist -> label
I0519 17:39:35.757088  8459 data_layer.cpp:45] output data size: 64,1,28,28
I0519 17:39:35.758513  8459 net.cpp:122] Setting up mnist
I0519 17:39:35.758559  8459 net.cpp:129] Top shape: 64 1 28 28 (50176)
I0519 17:39:35.758580  8459 net.cpp:129] Top shape: 64 (64)
I0519 17:39:35.758596  8459 net.cpp:137] Memory required for data: 200960
I0519 17:39:35.758617  8459 layer_factory.hpp:77] Creating layer conv1
I0519 17:39:35.758659  8459 net.cpp:84] Creating Layer conv1
I0519 17:39:35.758693  8459 net.cpp:406] conv1 <- data
I0519 17:39:35.758721  8459 net.cpp:380] conv1 -> conv1
I0519 17:39:35.759543  8459 net.cpp:122] Setting up conv1
I0519 17:39:35.759598  8459 net.cpp:129] Top shape: 64 20 24 24 (737280)
I0519 17:39:35.759614  8459 net.cpp:137] Memory required for data: 3150080
I0519 17:39:35.759649  8459 layer_factory.hpp:77] Creating layer pool1
I0519 17:39:35.759676  8459 net.cpp:84] Creating Layer pool1
I0519 17:39:35.759692  8459 net.cpp:406] pool1 <- conv1
I0519 17:39:35.759717  8459 net.cpp:380] pool1 -> pool1
I0519 17:39:35.760197  8459 net.cpp:122] Setting up pool1
I0519 17:39:35.760279  8459 net.cpp:129] Top shape: 64 20 12 12 (184320)
I0519 17:39:35.760298  8459 net.cpp:137] Memory required for data: 3887360
I0519 17:39:35.760318  8459 layer_factory.hpp:77] Creating layer conv2
I0519 17:39:35.760349  8459 net.cpp:84] Creating Layer conv2
I0519 17:39:35.760366  8459 net.cpp:406] conv2 <- pool1
I0519 17:39:35.760411  8459 net.cpp:380] conv2 -> conv2
I0519 17:39:35.760890  8459 net.cpp:122] Setting up conv2
I0519 17:39:35.760921  8459 net.cpp:129] Top shape: 64 50 8 8 (204800)
I0519 17:39:35.760939  8459 net.cpp:137] Memory required for data: 4706560
I0519 17:39:35.760967  8459 layer_factory.hpp:77] Creating layer pool2
I0519 17:39:35.760994  8459 net.cpp:84] Creating Layer pool2
I0519 17:39:35.761014  8459 net.cpp:406] pool2 <- conv2
I0519 17:39:35.761032  8459 net.cpp:380] pool2 -> pool2
I0519 17:39:35.761057  8459 net.cpp:122] Setting up pool2
I0519 17:39:35.761077  8459 net.cpp:129] Top shape: 64 50 4 4 (51200)
I0519 17:39:35.761092  8459 net.cpp:137] Memory required for data: 4911360
I0519 17:39:35.761109  8459 layer_factory.hpp:77] Creating layer ip1
I0519 17:39:35.761135  8459 net.cpp:84] Creating Layer ip1
I0519 17:39:35.761167  8459 net.cpp:406] ip1 <- pool2
I0519 17:39:35.761188  8459 net.cpp:380] ip1 -> ip1
I0519 17:39:35.767597  8459 net.cpp:122] Setting up ip1
I0519 17:39:35.767626  8459 net.cpp:129] Top shape: 64 500 (32000)
I0519 17:39:35.767640  8459 net.cpp:137] Memory required for data: 5039360
I0519 17:39:35.767664  8459 layer_factory.hpp:77] Creating layer relu1
I0519 17:39:35.767683  8459 net.cpp:84] Creating Layer relu1
I0519 17:39:35.767696  8459 net.cpp:406] relu1 <- ip1
I0519 17:39:35.767711  8459 net.cpp:367] relu1 -> ip1 (in-place)
I0519 17:39:35.768141  8459 net.cpp:122] Setting up relu1
I0519 17:39:35.768184  8459 net.cpp:129] Top shape: 64 500 (32000)
I0519 17:39:35.768201  8459 net.cpp:137] Memory required for data: 5167360
I0519 17:39:35.768216  8459 layer_factory.hpp:77] Creating layer ip2
I0519 17:39:35.768236  8459 net.cpp:84] Creating Layer ip2
I0519 17:39:35.768250  8459 net.cpp:406] ip2 <- ip1
I0519 17:39:35.768273  8459 net.cpp:380] ip2 -> ip2
I0519 17:39:35.768394  8459 net.cpp:122] Setting up ip2
I0519 17:39:35.768416  8459 net.cpp:129] Top shape: 64 10 (640)
I0519 17:39:35.768429  8459 net.cpp:137] Memory required for data: 5169920
I0519 17:39:35.768447  8459 layer_factory.hpp:77] Creating layer loss
I0519 17:39:35.768467  8459 net.cpp:84] Creating Layer loss
I0519 17:39:35.768479  8459 net.cpp:406] loss <- ip2
I0519 17:39:35.768494  8459 net.cpp:406] loss <- label
I0519 17:39:35.768513  8459 net.cpp:380] loss -> loss
I0519 17:39:35.768538  8459 layer_factory.hpp:77] Creating layer loss
…
I0519 17:39:35.769352  8459 solver.cpp:172] Creating test net (#0) specified by net file: lenet_train_test.prototxt
I0519 17:39:35.769412  8459 net.cpp:294] The NetState phase (1) differed from the phase (0) specified by a rule in layer mnist
I0519 17:39:35.769593  8459 net.cpp:51] Initializing net from parameters:
name: "LeNet"
state {
  phase: TEST
}
layer {
  name: "mnist"
  type: "Data"
  top: "data"
  top: "label"
  include {
    phase: TEST
  }
  transform_param {
    scale: 0.00390625
  }
  data_param {
    source: "mnist_test_lmdb"
    batch_size: 100
    backend: LMDB
  }
}
layer {
  name: "conv1"
  type: "Convolution"
  bottom: "data"
  top: "conv1"
  param {
    lr_mult: 1
  }
  param {
    lr_mult: 2
  }
  convolution_param {
    num_output: 20
    kernel_size: 5
    stride: 1
    weight_filler {
      type: "xavier"
    }
    bias_filler {
      type: "constant"
    }
  }
}
layer {
  name: "pool1"
  type: "Pooling"
  bottom: "conv1"
  top: "pool1"
  pooling_param {
    pool: MAX
    kernel_size: 2
    stride: 2
  }
}
layer {
  name: "conv2"
  type: "Convolution"
  bottom: "pool1"
  top: "conv2"
  param {
    lr_mult: 1
  }
  param {
    lr_mult: 2
  }
  convolution_param {
    num_output: 50
    kernel_size: 5
    stride: 1
    weight_filler {
      type: "xavier"
    }
    bias_filler {
      type: "constant"
    }
  }
}
layer {
  name: "pool2"
  type: "Pooling"
  bottom: "conv2"
  top: "pool2"
  pooling_param {
    pool: MAX
    kernel_size: 2
    stride: 2
  }
}
layer {
  name: "ip1"
  type: "InnerProduct"
  bottom: "pool2"
  top: "ip1"
  param {
    lr_mult: 1
  }
  param {
    lr_mult: 2
  }
  inner_product_param {
    num_output: 500
    weight_filler {
      type: "xavier"
    }
    bias_filler {
      type: "constant"
    }
  }
}
layer {
  name: "relu1"
  type: "ReLU"
  bottom: "ip1"
  top: "ip1"
}
layer {
  name: "ip2"
  type: "InnerProduct"
  bottom: "ip1"
  top: "ip2"
  param {
    lr_mult: 1
  }
  param {
    lr_mult: 2
  }
  inner_product_param {
    num_output: 10
    weight_filler {
      type: "xavier"
    }
    bias_filler {
      type: "constant"
    }
  }
}
layer {
  name: "accuracy"
  type: "Accuracy"
  bottom: "ip2"
  bottom: "label"
  top: "accuracy"
  include {
    phase: TEST
  }
}
layer {
  name: "loss"
  type: "SoftmaxWithLoss"
  bottom: "ip2"
  bottom: "label"
  top: "loss"
}
I0519 17:39:35.770467  8459 layer_factory.hpp:77] Creating layer mnist
I0519 17:39:35.770560  8459 db_lmdb.cpp:35] Opened lmdb mnist_test_lmdb
I0519 17:39:35.770596  8459 net.cpp:84] Creating Layer mnist
I0519 17:39:35.770617  8459 net.cpp:380] mnist -> data
I0519 17:39:35.770638  8459 net.cpp:380] mnist -> label
I0519 17:39:35.770674  8459 data_layer.cpp:45] output data size: 100,1,28,28
I0519 17:39:35.771409  8459 net.cpp:122] Setting up mnist
I0519 17:39:35.771435  8459 net.cpp:129] Top shape: 100 1 28 28 (78400)
I0519 17:39:35.771451  8459 net.cpp:129] Top shape: 100 (100)
I0519 17:39:35.771466  8459 net.cpp:137] Memory required for data: 314000
I0519 17:39:35.771479  8459 layer_factory.hpp:77] Creating layer label_mnist_1_split
I0519 17:39:35.771522  8459 net.cpp:84] Creating Layer label_mnist_1_split
I0519 17:39:35.771536  8459 net.cpp:406] label_mnist_1_split <- label
I0519 17:39:35.771553  8459 net.cpp:380] label_mnist_1_split -> label_mnist_1_split_0
I0519 17:39:35.771574  8459 net.cpp:380] label_mnist_1_split -> label_mnist_1_split_1
I0519 17:39:35.771594  8459 net.cpp:122] Setting up label_mnist_1_split
I0519 17:39:35.771610  8459 net.cpp:129] Top shape: 100 (100)
I0519 17:39:35.771625  8459 net.cpp:129] Top shape: 100 (100)
I0519 17:39:35.771648  8459 net.cpp:137] Memory required for data: 314800
I0519 17:39:35.771661  8459 layer_factory.hpp:77] Creating layer conv1
I0519 17:39:35.771692  8459 net.cpp:84] Creating Layer conv1
I0519 17:39:35.771710  8459 net.cpp:406] conv1 <- data
I0519 17:39:35.771733  8459 net.cpp:380] conv1 -> conv1
I0519 17:39:35.771792  8459 net.cpp:122] Setting up conv1
I0519 17:39:35.771813  8459 net.cpp:129] Top shape: 100 20 24 24 (1152000)
I0519 17:39:35.771829  8459 net.cpp:137] Memory required for data: 4922800
I0519 17:39:35.771853  8459 layer_factory.hpp:77] Creating layer pool1
I0519 17:39:35.771879  8459 net.cpp:84] Creating Layer pool1
I0519 17:39:35.771896  8459 net.cpp:406] pool1 <- conv1
I0519 17:39:35.771921  8459 net.cpp:380] pool1 -> pool1
I0519 17:39:35.771961  8459 net.cpp:122] Setting up pool1
I0519 17:39:35.771986  8459 net.cpp:129] Top shape: 100 20 12 12 (288000)
I0519 17:39:35.772002  8459 net.cpp:137] Memory required for data: 6074800
I0519 17:39:35.772032  8459 layer_factory.hpp:77] Creating layer conv2
I0519 17:39:35.772081  8459 net.cpp:84] Creating Layer conv2
I0519 17:39:35.772091  8459 net.cpp:406] conv2 <- pool1
I0519 17:39:35.772104  8459 net.cpp:380] conv2 -> conv2
I0519 17:39:35.772378  8459 net.cpp:122] Setting up conv2
I0519 17:39:35.772403  8459 net.cpp:129] Top shape: 100 50 8 8 (320000)
I0519 17:39:35.772411  8459 net.cpp:137] Memory required for data: 7354800
I0519 17:39:35.772428  8459 layer_factory.hpp:77] Creating layer pool2
I0519 17:39:35.772444  8459 net.cpp:84] Creating Layer pool2
I0519 17:39:35.772454  8459 net.cpp:406] pool2 <- conv2
I0519 17:39:35.772466  8459 net.cpp:380] pool2 -> pool2
I0519 17:39:35.772485  8459 net.cpp:122] Setting up pool2
I0519 17:39:35.772497  8459 net.cpp:129] Top shape: 100 50 4 4 (80000)
I0519 17:39:35.772505  8459 net.cpp:137] Memory required for data: 7674800
I0519 17:39:35.772516  8459 layer_factory.hpp:77] Creating layer ip1
I0519 17:39:35.772529  8459 net.cpp:84] Creating Layer ip1
I0519 17:39:35.772541  8459 net.cpp:406] ip1 <- pool2
I0519 17:39:35.772552  8459 net.cpp:380] ip1 -> ip1
I0519 17:39:35.776569  8459 net.cpp:122] Setting up ip1
I0519 17:39:35.776589  8459 net.cpp:129] Top shape: 100 500 (50000)
I0519 17:39:35.776598  8459 net.cpp:137] Memory required for data: 7874800
I0519 17:39:35.776612  8459 layer_factory.hpp:77] Creating layer relu1
I0519 17:39:35.776623  8459 net.cpp:84] Creating Layer relu1
I0519 17:39:35.776633  8459 net.cpp:406] relu1 <- ip1
I0519 17:39:35.776643  8459 net.cpp:367] relu1 -> ip1 (in-place)
I0519 17:39:35.776654  8459 net.cpp:122] Setting up relu1
I0519 17:39:35.776664  8459 net.cpp:129] Top shape: 100 500 (50000)
I0519 17:39:35.776672  8459 net.cpp:137] Memory required for data: 8074800
I0519 17:39:35.776679  8459 layer_factory.hpp:77] Creating layer ip2
I0519 17:39:35.776692  8459 net.cpp:84] Creating Layer ip2
I0519 17:39:35.776702  8459 net.cpp:406] ip2 <- ip1
I0519 17:39:35.776715  8459 net.cpp:380] ip2 -> ip2
I0519 17:39:35.776782  8459 net.cpp:122] Setting up ip2
I0519 17:39:35.776794  8459 net.cpp:129] Top shape: 100 10 (1000)
I0519 17:39:35.776803  8459 net.cpp:137] Memory required for data: 8078800
I0519 17:39:35.776813  8459 layer_factory.hpp:77] Creating layer ip2_ip2_0_split
I0519 17:39:35.776828  8459 net.cpp:84] Creating Layer ip2_ip2_0_split
I0519 17:39:35.776836  8459 net.cpp:406] ip2_ip2_0_split <- ip2
I0519 17:39:35.776845  8459 net.cpp:380] ip2_ip2_0_split -> ip2_ip2_0_split_0
I0519 17:39:35.776856  8459 net.cpp:380] ip2_ip2_0_split -> ip2_ip2_0_split_1
I0519 17:39:35.776870  8459 net.cpp:122] Setting up ip2_ip2_0_split
I0519 17:39:35.776880  8459 net.cpp:129] Top shape: 100 10 (1000)
I0519 17:39:35.776888  8459 net.cpp:129] Top shape: 100 10 (1000)
I0519 17:39:35.776896  8459 net.cpp:137] Memory required for data: 8086800
I0519 17:39:35.776904  8459 layer_factory.hpp:77] Creating layer accuracy
I0519 17:39:35.776919  8459 net.cpp:84] Creating Layer accuracy
I0519 17:39:35.776928  8459 net.cpp:406] accuracy <- ip2_ip2_0_split_0
I0519 17:39:35.776938  8459 net.cpp:406] accuracy <- label_mnist_1_split_0
I0519 17:39:35.776948  8459 net.cpp:380] accuracy -> accuracy
…
